numreader.pth (torch, 90793 bytes, 8 tensors)

conv1.weight f4 [10, 1, 5, 5]
000000 00 3c 45 be 2f 76 69 be 7d ba 05 be cc 7d 96 3e
       -0.1926117 -0.2279899 -0.13059421 0.2939285
000010 04 ba b9 3e f2 d3 31 be 25 b0 85 be 5d 95 4a be
       0.3627473 -0.17366007 -0.2611095 -0.1978354
000020 a1 4c 4f 3e b1 60 c4 3e 12 16 a2 be de c3 6c be
       0.20244075 0.3835502 -0.31657463 -0.23121592
000030 d0 e1 a6 bd 31 27 71 3e 5d bc 9d 3e 62 f9 ff bd
       -0.08148539 0.23550107 0.30807772 -0.12498738
000040 3a 41 17 be 00 cf 10 be 30 fe a1 3e 01 2f 7f 3e
       -0.14770976 -0.14141464 0.31639242 0.24920274
000050 dc 59 57 be 22 24 b5 bd 83 58 f0 bd a2 ef bb 3e
       -0.21030372 -0.088447824 -0.11735632 0.36706263
000060 3f 47 60 3e 2b 8d 74 3d 89 8c c0 3d 0d 0a 5d 3e
       0.21902178 0.05970494 0.09401805 0.21585865
000070 d6 a6 40 bd 95 21 5b 3e 1e 9b 7c bc e8 02 7f bd
       -0.047034107 0.2139953 -0.015417842 -0.06225863
000080 45 be 2f 3e 79 f3 75 bd 72 b5 1f be aa b7 c0 bc
       0.17162426 -0.060046647 -0.1559656 -0.023525078
000090 ab b8 7e bd 19 f9 50 3c a4 22 02 be c1 9e 1b be
       -0.06218783 0.012754702 -0.12708527 -0.15197279
0000a0 aa 4b 75 be d9 d4 05 be b3 05 ab bd 88 79 58 be
       -0.23954645 -0.13069476 -0.083506964 -0.2114011
0000b0 c2 1a 60 be c7 1c 36 be 94 2f d4 bd 07 7e cd bd
       -0.21885207 -0.17784415 -0.10360637 -0.100338034
0000c0 dc 2c 46 be 3c eb 1d bd 53 bd 0e 3d c5 db 20 3e
       -0.1935305 -0.038554415 0.034848522 0.15708835
0000d0 c0 1c 01 be d7 82 b7 3d 70 9d 7c 3e 2e b3 07 be
       -0.12608624 0.089605026 0.24669433 -0.13251945
0000e0 8f f9 02 3e c1 5c 2b 3e 3c ad 27 3e f7 a9 63 bd
       0.12790512 0.16734602 0.16374677 -0.055582013
0000f0 50 cf 08 be fa f2 c0 bd 48 ae 6d 3d 72 67 66 3e
       -0.13360333 -0.09421344 0.058027536 0.22500399
000100 c3 1e 4f 3e b0 bc 30 3e 1d 86 46 3e 6c 5e dd 3c
       0.20226578 0.17259479 0.19387098 0.027022563
000110 83 35 2a 3e 2b 7a 14 bc b6 f6 b1 3d dc d5 80 bd
       0.16621976 -0.00906233 0.086896345 -0.062907904
000120 8e 7a f9 bd 14 ab da 3d 78 05 70 3e c5 b6 c1 bd
       -0.121815786 0.10677162 0.23439586 -0.09458689
000130 dd 47 ca bd c9 5e 86 be 6c c9 16 3c ce ce 31 be
       -0.09876988 -0.2624419 0.009203296 -0.17364046
000140 d0 35 05 3e 53 66 61 be 2e 5e 5f be 82 d8 89 be
       0.13008809 -0.2201169 -0.2181327 -0.26922995
000150 95 45 55 3c 4d 3f a3 3c d8 ad 39 3e 84 fa 6a 3e
       0.013017078 0.019927645 0.18132722 0.22947127
000160 65 08 d7 3d 52 e3 b0 bd 18 f2 ab 3e cf 63 ba 3e
       0.10499648 -0.08637108 0.3358314 0.36404273
000170 6f 56 22 3e 24 d6 95 3e 7b 0b 13 be 3b 77 9a 3e
       0.15853284 0.2926494 -0.14359848 0.3016909
000180 54 04 57 3d 20 4f 1c bd f1 cb d3 bd 55 fe cf 3d
       0.052494362 -0.038161397 -0.10341633 0.10155932
000190 41 c7 85 3e 85 cd e2 3d 57 a6 9a 3e 46 9b c7 3d
       0.2612858 0.11074356 0.30205032 0.09746413
0001a0 58 2c cf 3d 34 b5 01 3e d3 c1 4f 3d e4 a9 1d 3e
       0.1011588 0.1266678 0.050721955 0.1539684
0001b0 a5 fd ba 3c f6 86 28 bd 44 ff ae bd 26 a7 e9 3d
       0.022826025 -0.041144334 -0.08544782 0.11408834
0001c0 b0 d4 f7 bd 1d ab a5 3d 47 92 70 3e 74 2f 97 b9
       -0.12101114 0.08089278 0.234933 -0.0002883632
0001d0 15 4d 00 3e 72 25 bf 3d c5 89 7f bc 70 34 81 3d
       0.12529404 0.09333314 -0.015596812 0.0630883
0001e0 95 67 34 be 46 ed 65 be 90 33 c4 bd 0c 84 d8 3d
       -0.17617638 -0.22453794 -0.09580147 0.10572061
0001f0 77 bb 3f 3e 88 bf fa 3d 0c 73 5b 3e 5f 98 5e bd
       0.18723856 0.12243563 0.21430606 -0.05434453
000200 4d 2e b3 3c 48 d9 8b be 31 71 3f bd 7c 00 ab 3e
       0.021872664 -0.2731421 -0.046738807 0.33398807
000210 dc 59 9d 3e eb 38 a0 bd 83 0d 68 bc 5c b3 4f 3e
       0.3073262 -0.07823356 -0.014163378 0.20283264
000220 3e ec 50 3e f6 9f 80 3d 8f 15 25 3e 3e 58 eb bc
       0.20402619 0.0628051 0.16121505 -0.0287286
000230 b2 0e af 3e 1e 99 c0 3e cf cc 4c 3c 45 a7 a3 3e
       0.341909 0.3761682 0.012500002 0.31963554
000240 0d b6 bc 3e 43 f2 d5 bc de 7c 56 3d d1 ef 56 3e
       0.36857644 -0.026116496 0.052365176 0.2098992
000250 3d 17 bd 3e fc db 13 3e 46 31 44 3e 61 53 36 3e
       0.36931792 0.14439386 0.19159421 0.17805244
000260 1a 30 01 3f bc a9 a0 3e c2 cc b3 3e f4 98 47 be
       0.5046402 0.31379497 0.35117155 -0.1949194
000270 56 bb 69 bc de 8c 60 3c 9f 88 db 3e 31 2c b0 3e
       -0.014265856 0.01370546 0.4287767 0.34408715
000280 a4 12 39 3d 60 9c 2a be 72 a0 bd bd 12 ac 0c be
       0.045183793 -0.16661215 -0.09259118 -0.13737515
000290 7a 43 8d 3e f9 72 76 be 68 c5 8b be 8b 36 1b be
       0.27590543 -0.24067296 -0.27299047 -0.15157525
0002a0 1c 2f 98 be 68 c7 6b be 47 45 86 be 5e 6d 61 be
       -0.29723442 -0.23025286 -0.2622473 -0.22014377
0002b0 33 a7 a8 be dc 5d 25 be 25 8b c9 bc 4a 60 5b be
       -0.32940063 -0.16149086 -0.024602482 -0.2142345
0002c0 5c 97 cf bd 42 87 0d be d5 a4 4b 3d ce e8 b3 3e
       -0.101362914 -0.13821128 0.049717743 0.35138553
0002d0 3d 4a 25 be 51 7f 6f 3d f9 70 df 3e ad e7 e8 3e
       -0.16141601 0.058471028 0.4364088 0.45489255
0002e0 08 44 55 3e 2b 79 9c 3e f6 84 fb 3e 9a fd d7 3e
       0.20826733 0.30561194 0.4912488 0.4218567
0002f0 27 03 e0 3d 9f 8b 12 3e 04 a6 c5 3e 21 de c8 3e
       0.10938101 0.14311074 0.38603222 0.3923197
000300 5e 0a 68 3d 0e 7d 1e be 25 1a 31 3c 03 27 8b 3e
       0.056650512 -0.15477392 0.010809456 0.271782
000310 47 25 60 3e 55 2c 40 be b4 8c 35 be 2d 47 60 be
       0.2188922 -0.18766911 -0.17729455 -0.21902151
000320 73 89 5c bd 9a 5c 0d 3e a1 80 56 3e 23 7d a5 3d
       -0.05384202 0.13804856 0.20947506 0.080805086
000330 61 27 5f be 47 ef 87 3d 77 9d ed 3d fa 9c 09 3e
       -0.21792366 0.066374354 0.116023 0.13438788
000340 12 b5 8d bc a3 5b c1 3b 12 32 9b 3e be 52 a0 3e
       -0.017298255 0.0059008165 0.30311638 0.31313127
000350 6e f3 a8 bd e6 9a 8d be 56 ef 92 be f4 57 57 3e
       -0.082495555 -0.2765724 -0.28698224 0.21029645
000360 45 f3 96 3e 51 f1 e8 3c 61 6b 7f bd ca c4 46 be
       0.29482475 0.028435381 -0.062358264 -0.19411007
000370 87 c5 a5 3d 46 ed 96 3e 97 31 6d 3d 9d 02 38 3d
       0.08094316 0.294779 0.05790862 0.044924367
000380 90 12 ec bd 67 25 26 be 7a 98 63 be 09 c0 1e be
       -0.11526978 -0.16225205 -0.22226134 -0.15502943
000390 9b fa 82 be 5a 18 39 3e 74 6f 2d 3e 84 dc 79 be
       -0.25581822 0.18075696 0.16937047 -0.24400526
0003a0 06 0e 10 be a2 51 2f 3e 24 1f 01 be 09 51 99 3d
       -0.1406785 0.17120984 -0.12609535 0.07486159
0003b0 ad 89 c0 3c f8 db 9f bd 2a b7 6c bd bf 06 7c 3e
       0.023503149 -0.078056276 -0.057791866 0.24611948
0003c0 7f 27 46 3e 09 85 2e 3e 0f a1 0f 3e d9 61 ac 3e
       0.19351004 0.17042936 0.14026283 0.33668402
0003d0 aa 20 79 3e 55 6b f4 bb e4 e6 a2 3e a8 4b 97 3e
       0.24328867 -0.007459084 0.3181678 0.2954991
0003e0 23 37 a4 3d 6a 38 05 3e
       0.08018329 0.13009802

conv1.bias f4 [10]
000000 e8 67 1a be 28 61 62 3e 0d 6d 2e 3e 4e bf 36 3e
       -0.150787 0.22107375 0.17033787 0.17846414
000010 1d e7 8d 3d 14 a2 32 3e 17 a7 9a 3a c9 3c 8d 3e
       0.06928847 0.1744464 0.0011799064 0.27585438
000020 c9 ba 42 3e 9e 5c 4d 3c
       0.19016565 0.012534289

conv2.weight f4 [20, 10, 5, 5]
000000 03 57 e6 bc c0 dc 03 bd 86 85 3c 3d 29 02 d9 bc
       -0.028117662 -0.032192945 0.046025775 -0.026490288
000010 01 e4 85 bd 96 30 76 bd 80 08 32 3d 59 87 44 bc
       -0.06537629 -0.06010493 0.043465137 -0.01199516
000020 e8 66 e0 bc e0 8d 33 3d 6f 9e b3 bc 82 8c 75 3d
       -0.02739282 0.043836474 -0.021926133 0.05994845
000030 da 6d 8c bc 27 da c7 bd 89 84 92 bd 5d b1 c8 bc
       -0.017142225 -0.09758406 -0.07154185 -0.024498636
000040 a0 05 41 3d 71 30 0e bc 46 e1 cd bd fa 81 80 bd
       0.047124505 -0.0086785415 -0.10052733 -0.06274791
000050 6f fe a1 3c 56 4c 44 3a 24 57 c7 bc 7a 3a f5 bc
       0.019774644 0.00074881816 -0.024333544 -0.02993511
000060 42 6e eb bc 4c 9b 3a bc aa 1c 09 3d b0 19 a0 bc
       -0.028739098 -0.011389565 0.0334746 -0.019543499
000070 c8 7f 35 3d b5 26 4f bc 13 e5 cf 3a 3c 66 02 bd
       0.044311315 -0.012643506 0.0015861116 -0.03183578
000080 6b 63 62 3c 70 b1 5a bc 7c d7 c4 bc d6 84 1b bd
       0.013817648 -0.013347968 -0.024028532 -0.03796848
000090 9a d0 30 3d 3c 5f 09 bd f9 c5 f4 3c 4c 9a 8b 3d
       0.043167688 -0.03353809 0.029879557 0.06816539
0000a0 86 4f 8b bd e2 e3 ec 39 91 a1 30 3d 45 c2 22 3d
       -0.06802277 0.00045183214 0.04312283 0.03973605
0000b0 c3 e2 4c 3c 08 06 cc 3c 6b aa b4 bb a2 0c 24 3d
       0.012505236 0.02490522 -0.0055134795 0.04005111
0000c0 a4 f3 7e 3d dd 2e 0a 3d a4 87 95 3c 23 80 91 bd
       0.062244073 0.0337361 0.018253155 -0.07104518
0000d0 33 58 40 bd 94 97 67 3d 6a da 4e bc ec 89 07 3d
       -0.046959113 0.05654104 -0.012625316 0.033090517
0000e0 d1 d8 74 3d 6f 01 ec 3b 24 2a 02 bd 43 15 b2 bc
       0.059777085 0.0072023193 -0.03177847 -0.021738654
0000f0 57 93 c8 bc 61 05 05 3d 8d bb 93 bd 52 0b 9e 3c
       -0.02448432 0.032475833 -0.07213507 0.019292507
000100 dd be a1 bc aa fc 85 bc 6d 23 fb bc 81 6b 13 3c
       -0.019744331 -0.016355831 -0.03065654 0.008997799
000110 e2 f8 9a 3c a1 d6 25 3d 02 5c 1e bd 42 96 b6 3b
       0.018917505 0.04048789 -0.038661964 0.0055721113
000120 d9 a4 05 3d 86 dc 3a 3d e1 59 d8 bc 48 b0 a2 bc
       0.032627914 0.045620464 -0.026410045 -0.019859448
000130 c8 eb 2a 3d 83 98 51 3d e9 77 b6 3d 31 b5 4c 3d
       0.041728765 0.051170837 0.0890959 0.049977485
000140 8f 48 e1 3c fa ab 3a bc df 83 65 3d 67 af 8f ba
       0.027500419 -0.0113935415 0.056033965 -0.0010962308
000150 59 ad 89 bd bb e8 6c bd 10 50 24 bd d2 8c eb 3c
       -0.067225166 -0.057839137 -0.040115416 0.028753672
000160 42 e5 e5 3c 0b 7b 7b 3d e0 2b 57 3d f7 5c 92 3d
       0.02806342 0.06139664 0.052532077 0.07146638
000170 7d 3d 2c bd 18 3e 90 3d 8e ea ab 3d 74 f8 25 bd
       -0.042050827 0.070430934 0.08394347 -0.040520146
000180 c3 75 56 3d e9 13 11 3d 78 65 87 bb 0e 9e 29 bc
       0.0523584 0.03541938 -0.004131969 -0.010352625
000190 d4 93 82 bd 77 4b 10 3c 33 de 81 bb ce 84 65 bd
       -0.06375852 0.008807055 -0.003963256 -0.056034856
0001a0 5b fd 8e 3d 9c 98 fb bc 33 72 b6 bc c8 cb b7 bd
       0.069819175 -0.030712418 -0.022271251 -0.08974415
0001b0 b8 e5 5d 3c c9 7e ac 3d 2e 65 23 3d 89 6a ad 3c
       0.013543539 0.0842262 0.039891414 0.021168964
0001c0 ac a5 88 3c 3a d4 39 bc 4f b7 94 3c 98 7e 81 bc
       0.016680561 -0.011342103 0.018153815 -0.015807435
0001d0 98 99 82 bc d2 d0 e3 bc 03 e3 ef bc 95 da 51 bd
       -0.01594238 -0.027809534 -0.029283052 -0.051233847
0001e0 d9 5d 0e 3d da f1 19 3d 94 ea 25 3d 29 b0 5d 3d
       0.03475747 0.037584163 0.040506914 0.054123078
0001f0 69 91 3a bd 8b e6 7a 3c 06 2c 2c bd a6 47 48 bd
       -0.04554883 0.015313755 -0.04203417 -0.048896454
000200 b1 4f 15 3d 10 95 9f 3d 02 1a 82 bd f0 5d 98 bd
       0.036452953 0.07792103 -0.06352617 -0.07439792
000210 13 b7 ec 3c 4d f1 c8 3c a2 7b 2a 3c e8 1b 47 bd
       0.02889589 0.024529124 0.010405453 -0.048610598
000220 cd 3e 9c bc dd fb 23 bd 1e 31 8b 3c f9 f7 91 bb
       -0.019072914 -0.040035117 0.016991194 -0.0044546095
000230 83 ef fb 3c d3 85 b0 bc 5d e9 a1 3c d4 40 0a bc
       0.030753857 -0.021548187 0.019764597 -0.008438308
000240 d5 e1 76 ba 3e 1d 7b bc fa 4e 6b bd 3a 9a 06 3c
       -0.0009417807 -0.015326796 -0.057448365 0.008215481
000250 39 d4 75 3c 9c 05 06 bd aa 08 19 3c 8e af fa bc
       0.015004211 -0.032720193 0.009340445 -0.03060129
000260 d6 eb 7d bd 26 35 f2 bc 5d f7 cc 3d 25 f8 55 bd
       -0.06199249 -0.029566359 0.10008118 -0.052238602
000270 46 57 50 bd 92 d0 38 bd 70 c7 e2 bc 3b 0e c4 3c
       -0.05086448 -0.045120783 -0.02768299 0.023932567
000280 41 b3 56 bc e3 b9 f1 bc a4 00 8a bc d3 ab 3f 3d
       -0.013104261 -0.029507583 -0.016846009 0.046794724
000290 21 5a bf bc 99 92 44 3d 4e 30 a4 3d 1a cb 35 3d
       -0.023358406 0.04799137 0.08017026 0.044383146
0002a0 00 bd a6 3d 42 dc 06 bd 1a 8e be 3c ee 1e 0f 3d
       0.08141518 -0.032924898 0.023261119 0.034941606
0002b0 14 55 dc 3d b9 d0 2a 3d 2d 68 4b bb 11 3e a8 bc
       0.10758415 0.04170296 -0.0031037435 -0.020537408
0002c0 1b 53 c7 bd 47 12 cf 3d 54 c3 3f 3e a2 a6 1c 3e
       -0.09732648 0.10110908 0.18726856 0.1529794
0002d0 26 11 20 3d d9 bf c1 3d 61 6b 08 3e 4a 64 02 3e
       0.039078854 0.0946042 0.13322212 0.1273357
0002e0 0e 50 c2 3c a8 c9 58 bd 32 57 b6 bc e6 90 b7 bd
       0.023719814 -0.05292669 -0.022258375 -0.08963184
0002f0 52 28 a1 bc 29 f6 26 3c be 1a a1 bb 0b 39 88 bc
       -0.019672547 0.010190525 -0.004916518 -0.016628763
000300 01 a9 00 be f6 ad ad bc cd 2e bd 3c fb 17 5e bc
       -0.1256447 -0.021201115 0.023093605 -0.013555522
000310 e1 ce c6 3b 06 22 d0 bb da 31 2c bd 10 c2 78 3c
       0.0060671424 -0.006351712 -0.04203973 0.015182987
000320 d8 4a 11 3d b1 ad 01 3a 84 2c ab bd 4a b0 0e bd
       0.035471767 0.00049468415 -0.083581 -0.03483609
000330 c9 b2 f3 3c b1 ae 48 3d 91 c4 cf bc 3e b1 4e 3d
       0.029748337 0.048994724 -0.025362285 0.050462
000340 b2 bc 03 3d b6 4b 2f 3d 15 86 34 3d 50 a1 9c bc
       0.032162376 0.042796813 0.044073183 -0.019119889
000350 da 12 96 3d 21 2c c6 bc 07 9f 16 bd b7 1f ef 3b
       0.073278144 -0.024190964 -0.036772754 0.007297482
000360 61 db 86 bb 01 38 46 bd eb 5f b4 bc e6 da 7a bc
       -0.0041155075 -0.048393253 -0.022018394 -0.0153109785
000370 be 37 53 bd 1c de 0f 3d 4e 6d 27 bc 33 ce 5b bd
       -0.05156683 0.03512393 -0.010218931 -0.053663444
000380 f4 83 ea 3c 39 58 ac 3c 62 55 0e 3d d5 5b f5 3c
       0.028627373 0.021038162 0.034749396 0.029951015
000390 05 f9 b6 3d 33 7b b6 bc be 75 02 bd 0e d2 cb bc
       0.089342155 -0.022275543 -0.03185057 -0.024880435
0003a0 3a e5 17 bc 46 dd 5c bd c3 55 12 bb 68 2c 8a bc
       -0.00927096 -0.05392196 -0.002232895 -0.016866878
0003b0 f1 3b 94 bc 32 d3 85 bc 3e df b4 3c 89 be 23 bc
       -0.018094989 -0.016336057 0.022079106 -0.009994158
0003c0 63 ea 16 3d d3 3e 28 bd e2 93 87 bc cf 04 c2 3d
       0.036844622 -0.04107554 -0.016550008 0.094735734
0003d0 df 96 0f bb c3 86 18 3c bd 9b 53 bd 30 22 8a bd
       -0.0021909995 0.009309473 -0.051662195 -0.06744802
0003e0 3c c6 81 bd 3e 75 a2 3c df 52 36 bd 37 67 fa bc
       -0.06336638 0.019831296 -0.044512626 -0.030566795
0003f0 65 92 a0 bd 84 22 e2 ba 51 d9 a5 bc 9c 4b 3a bd
       -0.078404225 -0.0017252718 -0.020245226 -0.045482263

conv2.bias f4 [20]
000000 f8 33 6a bd 72 99 4d bc 27 c6 c0 3c 42 1a 5c bd
       -0.057178468 -0.012548791 0.023531986 -0.05373598
000010 42 59 31 3c 91 79 52 bd 27 69 a7 bc 17 4a 5f 3b
       0.010824503 -0.051385466 -0.020435883 0.003407126
000020 0d aa 64 bd 78 e0 16 bc 15 55 fd bc d7 65 3e bd
       -0.055826236 -0.009208791 -0.03092436 -0.04648384
000030 bd 0b 11 3d dc f6 b1 3b 28 ae 0e bc bd 44 d9 3a
       0.035411585 0.0054310393 -0.008708514 0.0016576272
000040 81 f7 73 3d ec 98 ea 3b 5e b3 cf 3c 19 5a f6 bc
       0.05956221 0.007159343 0.025354084 -0.030072259

fc1.weight f4 [50, 320]
000000 93 f8 e2 bc 91 3c 1b bb 2b 20 15 3d 3e fe 5c 3c
       -0.02770642 -0.0023687223 0.03640763 0.01348835
000010 0b af 16 3c 85 d4 ef bc 22 17 a1 3c e5 96 c8 bc
       0.009197007 -0.029276142 0.01966435 -0.024486015
000020 ce fc 83 3c 19 70 5c 3d 8a 7b aa 3d de 25 24 bd
       0.016111758 0.053817842 0.083243445 -0.040075175
000030 aa 33 17 3c 16 51 1b bd c5 ed fa bc df b3 90 bd
       0.009228626 -0.037919126 -0.030630955 -0.07065558
000040 df bc 31 3c ed ff 34 bd 4f 48 22 3d 27 e7 b2 3c
       0.010848253 -0.044189382 0.03961974 0.021838738
000050 f9 3b b6 3c 63 db f2 3c 19 01 b5 3d 65 2a 9f bc
       0.022245394 0.029645627 0.088381 -0.019429395
000060 2e 92 0c bb fc e7 71 3c 98 01 88 bc 1f 1d c9 3b
       -0.0021449435 0.014764782 -0.016602322 0.0061375047
000070 00 4c d4 3d 15 1b cb 3b b1 4a cd bc 32 56 91 3c
       0.10366058 0.006198297 -0.02506003 0.017741296
000080 6d d6 e8 3c 6f 8d 12 bd 09 91 62 3d 92 43 c1 3d
       0.028422559 -0.035779413 0.055314098 0.09436716
000090 95 b1 b1 3d eb 9a 67 3c 6e 09 5b 3b 63 57 18 3d
       0.08676449 0.014136056 0.0033422369 0.037192713
0000a0 b7 d8 88 3d 62 ea a3 bc 6e dd 7a bc 8b 5e 1a bd
       0.0668196 -0.020009223 -0.015311582 -0.03768782
0000b0 9c e7 b3 3c 7a 0c c1 3d 74 20 a9 3c 6b a9 b1 ba
       0.021961026 0.09426208 0.020645358 -0.0013554519
0000c0 2a e8 e0 bb 17 b2 ea 3c a0 6e e2 3c 06 81 18 bd
       -0.0068636136 0.028649373 0.02764064 -0.03723242
0000d0 02 f7 f6 3b 70 a0 0c bd f3 71 af bc 57 74 cb bd
       0.00753677 -0.034332693 -0.02141664 -0.099342994
0000e0 ca 33 70 3d 28 5a a7 3d 5b db 94 bd 26 72 86 bd
       0.05864314 0.08171493 -0.07268401 -0.06564741
0000f0 54 53 b2 bd ec a8 65 bd 51 29 54 bd d5 1a d1 3c
       -0.087073 -0.0560693 -0.051797215 0.02552549
000100 5a 5e d2 bc 10 a0 46 bd 14 35 03 bc ac 34 a2 3d
       -0.025679756 -0.04849249 -0.00800826 0.079202026
000110 31 c8 fc bc 3b c5 93 bd 66 96 ee 3b 31 dd bb 3d
       -0.030857177 -0.07215353 0.0072811125 0.09173048
000120 94 ed 0e bd 1a 91 88 bc a0 e2 8c 3c 28 8f 0e bd
       -0.03489454 -0.016670752 0.017197907 -0.034804493
000130 52 fd ab 3d 60 e6 71 3d 68 7e cf ba f3 97 89 bb
       0.083979264 0.059057593 -0.0015830519 -0.004199022
000140 c0 28 f6 3b 79 5d dd bb e9 c5 91 3d 4f ff 26 bd
       0.007512182 -0.0067555276 0.071178265 -0.040770825
000150 1d 82 55 bd 82 a0 0d 3d 88 09 25 bd ca 9f b8 bd
       -0.05212604 0.0345769 -0.040292293 -0.09014852
000160 47 78 91 bd 3f 10 22 3c 97 a6 7c bd c2 a5 23 bd
       -0.07103019 0.009891569 -0.06168231 -0.039953
000170 2f 75 c5 bc 8a 7d 90 bd a3 ad 03 3d af db ce bb
       -0.024103729 -0.07055195 0.032148015 -0.0063128094
000180 52 ca 33 bd 52 d4 95 3d 69 41 f9 3b c6 39 f0 3c
       -0.04389412 0.073158875 0.0076066745 0.029324424
000190 b6 78 5e bd 03 32 12 bd 58 f0 24 bd 84 e8 61 3b
       -0.054314338 -0.035692226 -0.040268272 0.0034470866
0001a0 c7 55 2d bb ec ef 0e bd 02 1f e0 3c 86 86 24 bc
       -0.0026448832 -0.034896776 0.027358536 -0.0100418385
0001b0 ed 08 d4 bc 06 c1 8b ba 48 ae a0 3d d2 07 cc 3d
       -0.025883162 -0.0010662384 0.078457415 0.09962429
0001c0 d0 e9 94 bc 4f 81 66 bd e2 e6 21 bd 52 d8 2e 3d
       -0.018177897 -0.056275662 -0.039526828 0.042686768
0001d0 a9 33 42 bd 60 f1 2f 3d 0f 50 73 3d 36 d3 d1 3b
       -0.04741255 0.042954803 0.05940252 0.006403352
0001e0 4f 20 21 3d 9b f1 a1 3c f7 25 33 3d a6 df 1f 3b
       0.039337453 0.019768527 0.043737378 0.002439478
0001f0 9c 29 1f bd f9 60 4d 3d e6 39 0d bd b3 e3 cb 3c
       -0.03885804 0.05014131 -0.034479044 0.024888849
000200 25 22 5e bd f1 d4 44 bb 06 6d 98 bd a9 b8 36 3b
       -0.05423178 -0.003003415 -0.074426696 0.0027881062
000210 fc 43 1e bd 15 66 f4 bc cc da 8d 3d 99 cf 7a 3d
       -0.038639054 -0.029833833 0.06926498 0.061233137
000220 fb 09 23 bd 81 44 91 bc 9d 69 0e 3d e7 9a a1 3a
       -0.03980444 -0.01773286 0.03476869 0.001232949
000230 bb 6c 97 3d c6 f8 36 bd 1c b8 07 bd 4c 80 b6 b9
       0.073937856 -0.044670843 -0.033134565 -0.00034809334
000240 17 0e 02 3d 89 c2 cc bc a6 7f 51 3d e3 33 8f 3d
       0.03175172 -0.024995105 0.051147126 0.069923185
000250 ca ff 5c 3d ef 2a 49 bc 3f 08 60 bd 56 06 8d bc
       0.053954877 -0.012278303 -0.054695364 -0.017214935
000260 e2 56 16 bd 18 a7 66 bd 13 19 df 3b 21 e3 4b bd
       -0.03670395 -0.056311697 0.006808409 -0.049777154
000270 b4 46 b5 ba 9f 40 ea bc d7 fa b8 bc 70 66 34 3b
       -0.0013830275 -0.028595267 -0.022580547 0.0027526878
000280 4a 45 6f bd c0 7b 45 3b e0 ad 2a b9 cd a8 77 3d
       -0.05841569 0.0030133575 -0.00016277237 0.060463715
000290 4f a6 3d 3d 1f b0 a4 bc 39 2d 78 3b c4 48 76 bd
       0.046301182 -0.020103512 0.0037868752 -0.06012799
0002a0 35 92 c6 3c 09 5b 09 3d a3 df 56 bd 5c fd e1 ba
       0.024239639 0.033534084 -0.05245937 -0.0017241645
0002b0 c6 08 98 bc 5d 94 4d bd e9 ce b4 bc 86 cb 64 3d
       -0.018558871 -0.05019032 -0.022071319 0.055858158
0002c0 da 1a 6a 3d 64 84 bd 3c 61 66 19 bc 6f 40 24 bd
       0.057154514 0.023134418 -0.009362788 -0.04010051
0002d0 23 75 26 bc 97 f8 89 3d 22 36 09 bc 9a 1c 0d bd
       -0.0101597635 0.06736868 -0.008374723 -0.034451105
0002e0 cb f2 68 bc 23 00 b0 3a 9b 64 22 bd 61 3c 68 bd
       -0.014218043 0.0013427775 -0.039646726 -0.056698207
0002f0 fb 10 2e bd fb 1d b1 bc 29 ca 5a bd b3 83 b3 3d
       -0.042496663 -0.021620741 -0.05341545 0.08765354
000300 64 74 2d 3d af f4 0b bc 54 c3 2f bc df ae ef 3b
       0.042347327 -0.008542224 -0.010727722 0.0073145474
000310 0e 4a ef 3c a8 ff 23 3d 03 89 9d bc 47 9c 9d bd
       0.029210117 0.040038735 -0.019230371 -0.07695823
000320 f9 04 73 bd 08 25 67 bc 54 25 db 3c 08 26 ce bb
       -0.059330914 -0.01410795 0.026751198 -0.006291155
000330 d5 06 37 bc 59 67 78 bd 39 3e 15 bc 2c 35 88 3d
       -0.0111710625 -0.060645435 -0.009109073 0.06650767
000340 b6 02 40 3d cc 1a 1d bc 51 c9 0d bc 57 2f a6 bc
       0.046877585 -0.009588908 -0.008653955 -0.020286245
000350 8e 7c cb bc 72 21 a2 bd 49 db 33 3d 1e 33 49 bd
       -0.024839666 -0.079165354 0.0439103 -0.049121015
000360 b4 46 b2 bd fd 09 48 bd c5 16 27 3d 2c 1b d5 3c
       -0.08704892 -0.04883765 0.0407932 0.026013933
000370 a4 7d 1b bd 17 cd 06 bd d8 bd 59 3d bf c8 4d 3d
       -0.037961617 -0.032910433 0.053159565 0.050240275
000380 d8 27 3e 3c 6d 4e 38 bd e8 ec 83 3d df 3f 25 3d
       0.011606179 -0.044996668 0.06441671 0.040344115
000390 39 21 1d bd 66 f6 28 3d 19 dd ff 3c 18 a6 2a bd
       -0.03836176 0.04125061 0.031233357 -0.041662306
0003a0 66 b3 ad bd 6a 55 87 bd 24 cf 80 bc 97 f5 85 bc
       -0.08481483 -0.06608088 -0.015723772 -0.016352458
0003b0 8d 1a 81 bc 63 c4 56 bd 3f 42 b3 3d 39 91 db 3d
       -0.01575973 -0.052433383 0.0875287 0.107210584
0003c0 f8 da a2 3c 47 11 dd 3c aa 2d b5 bb 59 69 bd 3d
       0.019879803 0.026985778 -0.005529125 0.09248609
0003d0 3d 15 e5 ba 68 af 18 bd 94 d6 5a 3d 2b 8a 24 3d
       -0.0017477643 -0.037276655 0.053427294 0.04017083
0003e0 89 f0 8e bd 0c 8d d7 bc 02 15 5c bc a8 60 05 bd
       -0.06979472 -0.026312374 -0.013432743 -0.03256288
0003f0 10 56 d4 b9 92 8b 2a bc 0e c7 a1 bc b8 e5 a6 bd
       -0.00040499913 -0.010409253 -0.019748237 -0.08149284

fc1.bias f4 [50]
000000 21 d1 c2 3c 5a f5 60 3d 43 51 38 bc 1c 11 94 bc
       0.023781361 0.054921485 -0.011249843 -0.018074565
000010 c8 8c 3b bd c2 c5 47 3d 92 a1 7a 3d 89 e8 2d 3d
       -0.045788556 0.04877258 0.06118924 0.04245809
000020 ba 9f 28 3d 00 3b 02 bd 65 66 0e 3d 5a af 89 bb
       0.041167952 -0.031794548 0.03476562 -0.0042018117
000030 1c 2c b4 3b 9c 23 55 bc bc 85 d5 bc ba 78 8d 3c
       0.0054984223 -0.013008978 -0.026064746 0.017269481
000040 1b b5 0c 3d 28 c4 45 3d c5 ab 1b bd f7 67 61 3d
       0.034352403 0.048282772 -0.03800561 0.05503079
000050 77 b2 70 3d 8f ed 98 bc 55 01 20 3d b1 1b 47 3d
       0.058763947 -0.018667964 0.03906377 0.048610393
000060 4b e8 ab 3c 84 99 11 bd fe 3d 14 3d 02 d6 aa 3c
       0.02098479 -0.035546795 0.036191933 0.020854
000070 7b a4 38 3d 3b 1c 89 bc 89 cc bc 3b 2c bd fe 3c
       0.045078736 -0.016737094 0.005761687 0.031096064
000080 0c 8a 09 bd 5b ab f8 bc d8 e8 53 bd 27 a4 1e bc
       -0.033578917 -0.030355146 -0.05173573 -0.009682692
000090 b6 14 5b 3c c6 80 be 3c 19 56 e0 3c 16 fc 8f bc
       0.013371637 0.023254763 0.027384805 -0.017576259
0000a0 a0 c5 a9 bc ed 41 3f 3d c6 b9 86 bc fa 75 e7 bc
       -0.020724118 0.04669373 -0.016446006 -0.028254498
0000b0 6a ac 4e 3c 3e ca da bc 1d 47 6a bc f5 0d a2 3c
       0.012614349 -0.026707765 -0.014299181 0.019782046
0000c0 83 f0 25 bb ad 98 ef 3c
       -0.0025320358 0.029247606

fc2.weight f4 [10, 50]
000000 71 f8 31 be 66 48 0b bd 28 c9 28 3e db f9 05 be
       -0.17379929 -0.03400459 0.16482985 -0.13083594
000010 97 e4 44 bd 40 88 1d bd 8d 2e 92 bd b3 ac e6 3d
       -0.048069563 -0.038460016 -0.07137785 0.112634085
000020 2e 3e 00 bd f6 15 ad bd 47 b0 46 be b4 0d 6d 3e
       -0.0313093 -0.08451454 -0.19403182 0.23149759
000030 cd 6d 18 be b9 35 3f 3c f4 94 49 be 0f 2c f5 bd
       -0.14885636 0.011670523 -0.19685727 -0.11971294
000040 ba d6 35 3d 3d c6 30 be c3 ea 4e 3e 60 52 bc bd
       0.044394232 -0.17263122 0.20206742 -0.09195399
000050 63 fc 40 3e 85 f6 94 bd ac ed e5 bd b1 f3 ac 3e
       0.18846278 -0.07273582 -0.11226973 0.33779672
000060 c7 64 41 3e 9c 29 37 3d d0 b6 73 3e 22 22 6f bd
       0.188861 0.044717416 0.23800206 -0.05838216
000070 5e 23 f9 3d 17 9f 48 be 1e b1 65 3e 32 ce 3f be
       0.12164949 -0.19591938 0.22430846 -0.18731001
000080 91 f8 89 bc c5 0f e9 bd ad 24 c3 bc 40 16 e2 3d
       -0.016842159 -0.11379961 -0.0238212 0.110394
000090 ae 34 18 be 95 d0 c4 bd d2 03 52 3e 40 5a 57 be
       -0.14863846 -0.09610096 0.2050927 -0.21030521
0000a0 3c 69 de bd cd 31 26 3e bb 6b 22 be 4f c2 b1 bd
       -0.108599156 0.16229935 -0.15861408 -0.086796395
0000b0 86 cf 92 bd c7 5e 7b bd e1 0a 09 be 4f be 66 3d
       -0.07168488 -0.061369684 -0.13383056 0.056333836
0000c0 bf 83 a3 3c f9 1c 0b be 1c ee b2 3c 1e 75 3a 3e
       0.019960282 -0.13585271 0.021842055 0.18208739
0000d0 fb 8c e5 bd 8d 8b 19 bd e9 51 29 3e 23 fc 59 3e
       -0.112085305 -0.0374866 0.16535152 0.21287589
0000e0 65 8c 52 3e b6 68 b8 bd 8b 91 1c 3d 3a dc 4f 3e
       0.20561369 -0.09004347 0.038224738 0.20298854
0000f0 7a 94 05 bd 40 1b 53 be b8 f4 7a be 4e e2 a8 3e
       -0.0326123 -0.20615864 -0.24507415 0.32985157
000100 cf 0d 32 3e 90 51 f3 3c d4 62 bb 3d 79 9c ab bd
       0.1738808 0.029701978 0.09149709 -0.08379454
000110 38 0f 8c 3d 7d 9e 22 be 77 25 17 be 5d 54 ab bd
       0.0683884 -0.15880771 -0.14760385 -0.083657004
000120 7b 4b bf bd 9e 0d 8a bc f2 90 1a be 14 99 2b 3e
       -0.09340569 -0.016852196 -0.15094355 0.16757613
000130 0d f0 57 be 0c 95 2a 3e 75 db bc 3d 33 03 38 3e
       -0.21087666 0.1665842 0.092215456 0.1796997
000140 60 52 12 3e 86 d9 28 3e dc fe d8 bd e5 f4 67 be
       0.14289236 0.16489229 -0.105954856 -0.22652014
000150 47 84 ad 3c a6 15 2a 3d 16 8e 88 bd ca f6 f7 3d
       0.021181239 0.04152455 -0.06667726 0.12107618
000160 c7 3a 3c be e3 1d eb 3d 1e 89 11 3d 2e 1d e6 ba
       -0.18381797 0.1148031 0.035531156 -0.0017556304
000170 b9 a9 43 be de c3 50 be 6b c7 dd bd bb 77 1c 3e
       -0.19107713 -0.20387217 -0.108290516 0.15280049
000180 0b 2d 0c 3e 14 fb ca 3c c4 7b 96 be c8 6e e9 3d
       0.13689058 0.024777927 -0.293913 0.11398083
000190 ad 90 1f be 63 7e 20 be a2 06 06 3e 13 8a 98 bd
       -0.15582533 -0.15673213 0.13088468 -0.074482106
0001a0 8b 32 14 3d 96 0d 6c 3e 85 42 3e be 17 ac 9f bd
       0.036181014 0.23052058 -0.18580063 -0.077964954
0001b0 65 8b 64 3d a3 0c 1f be 36 21 3c 3e b1 d7 06 bd
       0.055797 -0.15532164 0.18372044 -0.032920543
0001c0 9e 58 0d 3d 94 dd ea bd cd 1a 2f 3e 64 f0 9e 3c
       0.03450834 -0.11468044 0.17100067 0.019401737
0001d0 28 b1 0e be f8 57 51 3e b1 0f fc bd 54 4c 6a be
       -0.13934767 0.20443714 -0.123076804 -0.2288068
0001e0 37 6f 0b 3e 7c c4 5c be 01 ed 46 bd bd cc 1a bd
       0.13616644 -0.21559328 -0.04856587 -0.03779291
0001f0 8a 35 d4 bc 20 e2 f2 bd f5 ae 24 be b4 85 11 be
       -0.025904436 -0.11859536 -0.16082366 -0.1421116
000200 13 95 1a 3e aa 0a f9 bd 6a 5b 13 3e eb cd 51 3e
       0.1509593 -0.12160237 0.1439034 0.20488708
000210 f2 17 5e 3e d4 eb 30 be 89 66 99 bc 88 36 23 bc
       0.21688822 -0.17277461 -0.01872565 -0.009961732
000220 c1 52 85 bd ad 6c 3a 3e 34 c2 3f 3e 59 1a 0a be
       -0.06509925 0.18205519 0.18726426 -0.13486613
000230 59 2b 45 bd 51 a7 42 be c4 d4 fa bd 81 4c 38 be
       -0.048137043 -0.19009139 -0.12247613 -0.17997934
000240 48 bf a9 bd 9a d2 49 be 7f f3 1d 3e 6e 61 2d bc
       -0.08288437 -0.19709244 0.15424918 -0.010582311
000250 c4 86 06 3e a0 8d 1f 3e d2 d0 8d 3e 8b 2e d9 bd
       0.13137347 0.1558137 0.2769838 -0.106045805
000260 bf 10 8e 3d 05 03 bb bc 2f 37 06 be eb fb 24 be
       0.06936788 -0.022828588 -0.13106988 -0.16111724
000270 d6 62 79 3e 09 6a 01 3e fa 4a 2d bd 52 ac 23 be
       0.24354109 0.12638105 -0.04230783 -0.15983704
000280 38 92 4e 3e 9e d1 43 be 0d 5a 22 3e 9e 7b 0b be
       0.20172966 -0.19122931 0.15854664 -0.13621375
000290 2b 74 2d 3e 59 f6 5a bd 09 f2 3c 3d 4b 3a 48 3e
       0.16938846 -0.05345759 0.04612926 0.19553487
0002a0 09 ca 8c bc 6a 82 23 be 21 0f 1d be 65 2e 3d 3e
       -0.017186182 -0.15967718 -0.15337802 0.1847473
0002b0 2a f4 a5 bc 8b 3f 43 bd d9 75 04 3e ea b4 13 be
       -0.020258028 -0.04766802 0.1293558 -0.14424482
0002c0 4d 4f 30 be 72 79 1d 3e b3 b8 0b 3e ca c1 bc bd
       -0.17217751 0.15378359 0.13644676 -0.0921665
0002d0 b2 5c 62 be 59 46 44 3e 16 f8 eb bb 61 a2 3d 3e
       -0.22105673 0.1916746 -0.007201205 0.18518974
0002e0 28 1e c0 bc 86 c5 80 3d 95 a6 3b bd e9 a6 1a 3e
       -0.02345188 0.062876746 -0.045813162 0.15102734
0002f0 15 3b ea bc 5d 0e 64 be 98 eb f8 bd 1d 3d df 3d
       -0.028592626 -0.22271104 -0.12154311 0.10900328
000300 26 ff 01 be 25 c7 5e 3e 8f 0a c8 bc 8c 67 15 be
       -0.12694988 0.21755655 -0.024419097 -0.14590281
000310 60 7a 11 be 71 a3 a0 bc 8c 71 4d be 54 99 07 be
       -0.14206839 -0.019609185 -0.20062846 -0.13242084
000320 19 52 d4 bd c8 dc 14 3e 00 7c 8f be 8a 4f 91 bd
       -0.103672214 0.14537346 -0.28024292 -0.07095249
000330 de 81 3a 3d 84 32 9c bc 3c 39 0a be 56 1b bf 3d
       0.045534007 -0.019067056 -0.13498396 0.09331386
000340 80 75 a5 3d 94 09 62 3e 88 08 b3 3d af 8c d6 3d
       0.08079052 0.22073966 0.087418616 0.10476052
000350 d4 41 90 be f2 bd 12 be 3e 73 d4 3d 46 01 02 3e
       -0.28175223 -0.14330271 0.10373543 0.12695798
000360 d6 a4 a9 3d d0 ad 1f be 19 62 12 be 63 89 11 3e
       0.08283393 -0.15593648 -0.14295234 0.14212565
000370 0f 36 15 3e 8f 74 5f be 41 23 48 3e 04 d7 6a 3d
       0.14571403 -0.21821807 0.19544698 0.05733396
000380 5c 12 0c be 3a 0a 2f 3e 72 97 bf bd 53 ce 09 3e
       -0.13678879 0.17093745 -0.09355058 0.13457613
000390 24 25 68 be 34 b8 37 3d 8f 68 09 be 57 7a 84 3d
       -0.22670418 0.044853404 -0.13418792 0.06468647
0003a0 71 c7 7e 3e 5c db f9 3d cc 6a 05 bd d4 2f 8f 3d
       0.24880768 0.122000426 -0.032572553 0.06991544
0003b0 6d e1 90 3e 57 86 7f be cb 1f f2 bd 29 be 26 3e
       0.28296986 -0.2495359 -0.1182247 0.16283478
0003c0 3a ee 5b 3c bf 5e 8a be c1 59 20 3e db 54 2d bd
       0.013423497 -0.2702541 0.15659238 -0.042317253
0003d0 e8 e1 8d 3d e7 32 29 3e 14 44 ed 3d dd 74 ba bd
       0.06927854 0.16523324 0.115852505 -0.09104321
0003e0 bc 07 37 3e 7f b4 6c be 91 f4 94 3e 65 29 55 bd
       0.17874044 -0.23115729 0.2909284 -0.05204143
0003f0 1f 3e a6 bd eb b8 e3 3d 75 29 e4 bc fe 36 ee bd
       -0.081173174 0.11119255 -0.0278518 -0.11631583

fc2.bias f4 [10]
000000 b9 db 84 3d 06 b3 ab 3c 97 b3 0b bd 07 9f 66 3c
       0.06487221 0.020959388 -0.034106817 0.014076001
000010 af f2 61 3d d4 ca 8c 3d 1c 9a 0f 3d e5 e0 14 be
       0.05516308 0.06874624 0.03505908 -0.14538915
000020 91 eb ae 3b 71 34 23 be
       0.0053381403 -0.15937974
